…
2026-02-02 12:19:32,171 - INFO - drift_features: pr,vpd
2026-02-02 12:19:32,171 - INFO - drift_target_year: None
2026-02-02 12:19:32,171 - INFO - attn_bias_strength: 0.0
2026-02-02 12:19:32,171 - INFO - target_stats_start_week: 15
2026-02-02 12:19:32,171 - INFO - target_stats_max_week: 35
2026-02-02 12:19:36,455 - INFO - Starting 1-fold cross validation
2026-02-02 12:19:36,455 - INFO - Starting fold 1/1
2026-02-02 12:19:36,467 - INFO - Initializing vita_corn_yield model
2026-02-02 12:19:36,467 - INFO - Initializing vita model
2026-02-02 12:19:36,715 - INFO - VITAYieldModel(
  (weather_model): VITA(
    (in_proj): Linear(in_features=34, out_features=200, bias=True)
    (positional_encoding): VanillaPositionalEncoding()
    (transformer_encoder): TransformerEncoder(
      (layers): ModuleList(
        (0-3): 4 x TransformerEncoderLayer(
          (self_attn): MultiheadAttention(
            (out_proj): NonDynamicallyQuantizableLinear(in_features=200, out_features=200, bias=True)
          )
          (linear1): Linear(in_features=200, out_features=800, bias=True)
          (dropout): Dropout(p=0.1, inplace=False)
          (linear2): Linear(in_features=800, out_features=200, bias=True)
          (norm1): LayerNorm((200,), eps=1e-05, elementwise_affine=True)
          (norm2): LayerNorm((200,), eps=1e-05, elementwise_affine=True)
          (dropout1): Dropout(p=0.1, inplace=False)
          (dropout2): Dropout(p=0.1, inplace=False)
        )
      )
    )
    (out_proj): Linear(in_features=200, out_features=62, bias=True)
  )
  (weather_attention): Sequential(
    (0): Linear(in_features=31, out_features=16, bias=True)
    (1): GELU(approximate='none')
    (2): Linear(in_features=16, out_features=1, bias=True)
  )
  (yield_mlp): Sequential(
    (0): Linear(in_features=35, out_features=120, bias=True)
    (1): GELU(approximate='none')
    (2): Linear(in_features=120, out_features=1, bias=True)
  )
)
2026-02-02 12:19:37,559 - INFO - using cosine annealing
2026-02-02 12:19:37,559 - INFO - Total number of parameters: 2.0m
2026-02-02 12:19:37,559 - INFO - Distributed training: False, World size: 1
2026-02-02 12:19:37,559 - INFO - Batch size per GPU: 8
2026-02-02 12:19:37,559 - INFO - Test type: extreme on years [2002, 2004, 2009, 2012, 2014]
2026-02-02 12:19:37,559 - INFO - Single test year mode - Testing on year: 2012
…
